Namespace(device='cuda', batch_size=16, img_size=256, T=1000, epochs=2000, dataset_folder='/home/msai/zfu009/dataset/pokemon_jpg/pokemon_jpg', model_path=None, num_workers=2)
Dataset loaded
SimpleUnet(
  (time_mlp): Sequential(
    (0): SinusoidalPositionEmbeddings()
    (1): Linear(in_features=32, out_features=32, bias=True)
    (2): ReLU()
  )
  (conv0): Conv2d(3, 64, kernel_size=(3, 3), stride=(1, 1), padding=(1, 1))
  (downs): ModuleList(
    (0): Block(
      (time_mlp): Linear(in_features=32, out_features=128, bias=True)
      (conv1): Conv2d(64, 128, kernel_size=(3, 3), stride=(1, 1), padding=(1, 1))
      (transform): Conv2d(128, 128, kernel_size=(4, 4), stride=(2, 2), padding=(1, 1))
      (conv2): Conv2d(128, 128, kernel_size=(3, 3), stride=(1, 1), padding=(1, 1))
      (bnorm1): BatchNorm2d(128, eps=1e-05, momentum=0.1, affine=True, track_running_stats=True)
      (bnorm2): BatchNorm2d(128, eps=1e-05, momentum=0.1, affine=True, track_running_stats=True)
      (relu): ReLU()
    )
    (1): Block(
      (time_mlp): Linear(in_features=32, out_features=256, bias=True)
      (conv1): Conv2d(128, 256, kernel_size=(3, 3), stride=(1, 1), padding=(1, 1))
      (transform): Conv2d(256, 256, kernel_size=(4, 4), stride=(2, 2), padding=(1, 1))
      (conv2): Conv2d(256, 256, kernel_size=(3, 3), stride=(1, 1), padding=(1, 1))
      (bnorm1): BatchNorm2d(256, eps=1e-05, momentum=0.1, affine=True, track_running_stats=True)
      (bnorm2): BatchNorm2d(256, eps=1e-05, momentum=0.1, affine=True, track_running_stats=True)
      (relu): ReLU()
    )
    (2): Block(
      (time_mlp): Linear(in_features=32, out_features=512, bias=True)
      (conv1): Conv2d(256, 512, kernel_size=(3, 3), stride=(1, 1), padding=(1, 1))
      (transform): Conv2d(512, 512, kernel_size=(4, 4), stride=(2, 2), padding=(1, 1))
      (conv2): Conv2d(512, 512, kernel_size=(3, 3), stride=(1, 1), padding=(1, 1))
      (bnorm1): BatchNorm2d(512, eps=1e-05, momentum=0.1, affine=True, track_running_stats=True)
      (bnorm2): BatchNorm2d(512, eps=1e-05, momentum=0.1, affine=True, track_running_stats=True)
      (relu): ReLU()
    )
    (3): Block(
      (time_mlp): Linear(in_features=32, out_features=1024, bias=True)
      (conv1): Conv2d(512, 1024, kernel_size=(3, 3), stride=(1, 1), padding=(1, 1))
      (transform): Conv2d(1024, 1024, kernel_size=(4, 4), stride=(2, 2), padding=(1, 1))
      (conv2): Conv2d(1024, 1024, kernel_size=(3, 3), stride=(1, 1), padding=(1, 1))
      (bnorm1): BatchNorm2d(1024, eps=1e-05, momentum=0.1, affine=True, track_running_stats=True)
      (bnorm2): BatchNorm2d(1024, eps=1e-05, momentum=0.1, affine=True, track_running_stats=True)
      (relu): ReLU()
    )
  )
  (ups): ModuleList(
    (0): Block(
      (time_mlp): Linear(in_features=32, out_features=512, bias=True)
      (conv1): Conv2d(2048, 512, kernel_size=(3, 3), stride=(1, 1), padding=(1, 1))
      (transform): ConvTranspose2d(512, 512, kernel_size=(4, 4), stride=(2, 2), padding=(1, 1))
      (conv2): Conv2d(512, 512, kernel_size=(3, 3), stride=(1, 1), padding=(1, 1))
      (bnorm1): BatchNorm2d(512, eps=1e-05, momentum=0.1, affine=True, track_running_stats=True)
      (bnorm2): BatchNorm2d(512, eps=1e-05, momentum=0.1, affine=True, track_running_stats=True)
      (relu): ReLU()
    )
    (1): Block(
      (time_mlp): Linear(in_features=32, out_features=256, bias=True)
      (conv1): Conv2d(1024, 256, kernel_size=(3, 3), stride=(1, 1), padding=(1, 1))
      (transform): ConvTranspose2d(256, 256, kernel_size=(4, 4), stride=(2, 2), padding=(1, 1))
      (conv2): Conv2d(256, 256, kernel_size=(3, 3), stride=(1, 1), padding=(1, 1))
      (bnorm1): BatchNorm2d(256, eps=1e-05, momentum=0.1, affine=True, track_running_stats=True)
      (bnorm2): BatchNorm2d(256, eps=1e-05, momentum=0.1, affine=True, track_running_stats=True)
      (relu): ReLU()
    )
    (2): Block(
      (time_mlp): Linear(in_features=32, out_features=128, bias=True)
      (conv1): Conv2d(512, 128, kernel_size=(3, 3), stride=(1, 1), padding=(1, 1))
      (transform): ConvTranspose2d(128, 128, kernel_size=(4, 4), stride=(2, 2), padding=(1, 1))
      (conv2): Conv2d(128, 128, kernel_size=(3, 3), stride=(1, 1), padding=(1, 1))
      (bnorm1): BatchNorm2d(128, eps=1e-05, momentum=0.1, affine=True, track_running_stats=True)
      (bnorm2): BatchNorm2d(128, eps=1e-05, momentum=0.1, affine=True, track_running_stats=True)
      (relu): ReLU()
    )
    (3): Block(
      (time_mlp): Linear(in_features=32, out_features=64, bias=True)
      (conv1): Conv2d(256, 64, kernel_size=(3, 3), stride=(1, 1), padding=(1, 1))
      (transform): ConvTranspose2d(64, 64, kernel_size=(4, 4), stride=(2, 2), padding=(1, 1))
      (conv2): Conv2d(64, 64, kernel_size=(3, 3), stride=(1, 1), padding=(1, 1))
      (bnorm1): BatchNorm2d(64, eps=1e-05, momentum=0.1, affine=True, track_running_stats=True)
      (bnorm2): BatchNorm2d(64, eps=1e-05, momentum=0.1, affine=True, track_running_stats=True)
      (relu): ReLU()
    )
  )
  (output): Conv2d(64, 3, kernel_size=(1, 1), stride=(1, 1))
)
Num params:  62438883
Epoch 0 | step 000 Loss: 0.8110166788101196 
Epoch 100 | step 000 Loss: 0.055880364030599594 
